assets/model.tflite (tflite, 205696 bytes, 4 tensors)

dense_1/bias f2 [10]
000000 d9 af 47 a7 72 a4 dc 94 3a 28 ba 2e 52 17 b6 94
       -0.1226 -0.02843 -0.01736 -0.001186 0.03302 0.1051 0.001787 -0.00115
000010 50 1d bf a5
       0.005188 -0.02245

dense/bias f2 [128]
000000 be 26 8f a9 aa a9 be 2a bd 2b 51 2c 01 a0 fc 2c
       0.02634 -0.04343 -0.04425 0.05267 0.06046 0.06744 -0.00782 0.0779
000010 0a 29 8c 24 c4 29 d2 30 2d 22 0d ae 2a 2e 4e a5
       0.03937 0.01776 0.04504 0.1506 0.01206 -0.09454 0.0963 -0.02072
000020 59 aa 2a aa 93 2b 1f 2a 5c 2c fa 98 8c 24 ff 1d
       -0.0496 -0.04816 0.05917 0.04782 0.0681 -0.00243 0.01776 0.005856
000030 67 a4 5b 28 e6 2c 75 30 c4 a7 af 2b b2 9d b5 16
       -0.0172 0.03403 0.07654 0.1393 -0.03033 0.06003 -0.00556 0.001637
000040 e6 22 63 2a 1c 31 e4 a6 68 29 93 2d 8d 1b f3 2f
       0.01347 0.0499 0.1597 -0.02692 0.04224 0.0871 0.003687 0.1242
000050 e3 28 39 2a 3a 2e b8 21 2c 27 64 2b 38 a7 69 a9
       0.03818 0.0486 0.0973 0.01117 0.02802 0.05774 -0.0282 -0.04227
000060 bb 24 4a 28 e1 99 65 2d e1 a1 b3 32 6a 29 e4 2d
       0.01848 0.0335 -0.00287 0.0843 -0.01148 0.2094 0.0423 0.09204
000070 9d 2f 23 ae 05 2f ad 2d bc 30 e6 27 31 1d c0 24
       0.11896 -0.0959 0.1097 0.0887 0.148 0.03085 0.00507 0.01855
000080 70 ab 48 aa 8e 24 86 aa 2f 24 e5 2b 01 28 7e 24
       -0.0581 -0.04907 0.01779 -0.05096 0.01634 0.06168 0.03128 0.01755
000090 b8 a7 a8 aa a9 29 46 a7 d1 a9 ff 28 43 30 93 2b
       -0.03015 -0.052 0.04422 -0.02841 -0.04544 0.03903 0.1332 0.05917
0000a0 99 a2 76 ab ca 8e 79 2a a0 29 c5 20 de 24 e5 2e
       -0.012886 -0.0583 -0.0004144 0.05057 0.04395 0.009315 0.01901 0.1077
0000b0 d4 a2 bf aa 03 ac ac 1c 8a 1e 57 ad 97 23 76 2c
       -0.013336 -0.0527 -0.0627 0.004562 0.006386 -0.08344 0.014824 0.0697
0000c0 d4 2a 8f 22 a8 2c 87 aa 90 19 d5 29 ec ac 2e a6
       0.05334 0.01281 0.07275 -0.051 0.002716 0.04556 -0.0769 -0.02414
0000d0 52 27 5c 2c 40 2a b3 2c 66 2a eb a0 87 21 56 30
       0.0286 0.0681 0.04883 0.0734 0.05 -0.009605 0.010796 0.1355
0000e0 a7 30 cc 2b 16 29 63 2c c0 a4 f8 a9 05 28 33 1b
       0.1454 0.0609 0.03973 0.06854 -0.01855 -0.04663 0.0314 0.003515
0000f0 68 ad 6a 18 f9 a3 8f 2f 93 9c 63 2d a6 28 2f 2b
       -0.0845 0.002155 -0.01557 0.1181 -0.004467 0.08417 0.03632 0.05612

sequential/dense/MatMul f2 [128, 784]
000000 2e ad b0 2c fe 26 ff a6 4e 23 f8 a2 83 ab 73 25
       -0.08093 0.07324 0.02731 -0.02733 0.01427 -0.01361 -0.0587 0.02129
000010 b3 aa 83 a9 f8 a8 29 24 ca a8 e3 a9 fb 29 0e 28
       -0.05234 -0.04306 -0.03882 0.01625 -0.0374 -0.046 0.04672 0.03168
000020 c7 ab 70 ab dc 23 a5 1a 6f a9 72 ac c0 ac 64 a9
       -0.06076 -0.0581 0.01535 0.003244 -0.04245 -0.06946 -0.0742 -0.0421
000030 1a 2d e9 ac 17 9b 2a 2c 9f ac 47 2c 71 2c 23 ac
       0.0797 -0.0767 -0.003462 0.06506 -0.0722 0.06683 0.0694 -0.06464
000040 40 28 02 ab ab 2b 61 28 8a 2f 37 2e a6 2f 4b a0
       0.0332 -0.05475 0.0599 0.0342 0.1178 0.0971 0.1195 -0.008385
000050 f2 2a 55 2d 71 1f 66 26 db 32 bf 2f f8 28 63 27
       0.05426 0.0833 0.007267 0.025 0.2142 0.12103 0.03882 0.02885
000060 35 32 12 26 1d 2e 5c 25 8b 24 79 a8 7e ac cc 2b
       0.194 0.02371 0.0955 0.02094 0.01775 -0.03494 -0.0702 0.0609
000070 33 a9 5a ab c0 2b 0e 2c 07 2e 06 2e f4 2a 3f 29
       -0.04062 -0.05743 0.06055 0.06335 0.0942 0.0941 0.05432 0.041
000080 da 30 c4 30 3e 30 1d 34 df 32 6c 26 56 30 05 32
       0.1516 0.1489 0.1326 0.257 0.2147 0.02509 0.1355 0.1881
000090 93 2b 29 21 b1 2a 35 ab ef 1c 82 23 80 2f 2f 30
       0.05917 0.01008 0.05228 -0.0563 0.004818 0.01466 0.1172 0.1307
0000a0 70 24 f4 ac e0 a4 3e 2c 07 ab 5a a7 8a ae df 2e
       0.01733 -0.0774 -0.01904 0.0663 -0.0549 -0.02872 -0.1022 0.10736
0000b0 80 23 ad 2e 65 31 d5 30 25 2b 3b 31 10 31 18 33
       0.01465 0.1043 0.1686 0.151 0.05582 0.1635 0.1582 0.2217
0000c0 5d 30 e7 2c fd 31 a9 2d ad 28 99 2a 0b a5 24 2d
       0.1364 0.0766 0.1871 0.08844 0.03653 0.05154 -0.0197 0.0803
0000d0 90 25 d5 1d 6f 9e 64 80 23 22 da ac a0 24 bf ab
       0.02173 0.005695 -0.006283 -5.96e-06 0.011986 -0.0758 0.01807 -0.06052
0000e0 39 aa 11 a8 e8 ac 3d ae fa 19 a2 30 39 32 12 19
       -0.0486 -0.03177 -0.07666 -0.0975 0.002918 0.1448 0.1945 0.002476
0000f0 be 2f ba 2f ab 32 d2 29 80 a8 c4 ab 83 25 6b ab
       0.121 0.1207 0.2084 0.04547 -0.03516 -0.06067 0.02153 -0.05795
000100 9c aa 52 ab 09 1f 16 2a 5c 20 cc b0 8f ac 28 a6
       -0.05164 -0.0572 0.00687 0.04755 0.008514 -0.1499 -0.0712 -0.02405
000110 5f b2 87 b0 e1 28 0b 27 f9 29 1d 2a 2e 2a 8e ad
       -0.1991 -0.1415 0.03812 0.02751 0.04666 0.04776 0.04828 -0.0868
000120 dc 2d 88 aa 5d 28 35 a3 3c 21 95 ad 1c 2a f5 ad
       0.09155 -0.05103 0.0341 -0.01408 0.01022 -0.0872 0.04773 -0.0931
000130 45 aa 8f ab 57 ac 02 ad 42 26 e6 ac 3a 28 99 a5
       -0.04898 -0.05905 -0.0678 -0.07825 0.02444 -0.07654 0.03302 -0.02187
000140 56 ac ca aa 45 ac 1a ad 26 ac 22 b0 43 2c 5b 2c
       -0.06775 -0.05304 -0.0667 -0.0797 -0.0648 -0.1292 0.0666 0.06805
000150 18 2c b3 29 11 a8 42 2b 5a 2c c5 21 b1 ae 1e b0
       0.06396 0.04453 -0.03177 0.0567 0.068 0.01127 -0.10455 -0.1287
000160 6b b2 1d b0 b6 b0 14 1d ab aa cb ad 23 ad cb aa
       -0.2006 -0.1285 -0.1472 0.00496 -0.0521 -0.0905 -0.08026 -0.05307
000170 43 28 36 a6 10 ac a9 af 86 b1 bb b0 f2 ac a5 ae
       0.0333 -0.02426 -0.0635 -0.1197 -0.1726 -0.1478 -0.0773 -0.1038
000180 bc 18 43 b0 f7 ad 50 88 e1 a8 4a 30 a6 a7 41 2a
       0.002312 -0.1332 -0.0932 -0.0001316 -0.03812 0.134 -0.02988 0.04886
000190 d2 2f ed a0 a9 b0 6d b1 9d aa b2 a9 89 af 3b ac
       0.1222 -0.00962 -0.1456 -0.1696 -0.05167 -0.0445 -0.11774 -0.0661
0001a0 a4 ad a5 ae b4 28 36 aa 26 ad c2 ae 9e aa 9f af
       -0.08813 -0.1038 0.03674 -0.04852 -0.08044 -0.1056 -0.0517 -0.1191
0001b0 d2 ae b6 ad de a7 a7 b1 43 1a e5 ab 09 9d e4 2e
       -0.10657 -0.08923 -0.03073 -0.1766 0.003057 -0.06168 -0.004917 0.10767
0001c0 e1 30 a4 2d 41 ab 2d 29 8f 27 a8 27 2d b0 8b a4
       0.1525 0.08813 -0.05667 0.04044 0.02953 0.0299 -0.1305 -0.01775
0001d0 c3 1c b1 a7 9c ab 2e a8 6c ad ec ae 8b 2a a2 2f
       0.00465 -0.03004 -0.05945 -0.03265 -0.0847 -0.10815 0.05112 0.11926
0001e0 22 25 17 ab 0c a9 bb ac 59 ae 95 b1 50 b0 12 b0
       0.02005 -0.0554 -0.03943 -0.0739 -0.0992 -0.1744 -0.1348 -0.1272
0001f0 18 b3 e7 ae 9f b0 cd a8 26 b0 39 1b 4f ac cf 2a
       -0.2217 -0.10785 -0.1444 -0.0375 -0.1296 0.003527 -0.0673 0.0532

sequential/dense_1/MatMul f2 [10, 128]
000000 de 30 ec 31 17 34 b4 b5 5e b4 d8 32 ce 2c 6d b6
       0.1521 0.185 0.2556 -0.3564 -0.273 0.2139 0.0751 -0.4016
000010 fa 30 00 ae 0e 30 3d b4 44 b0 2a 2d 39 b5 38 b0
       0.1555 -0.09375 0.1267 -0.265 -0.1333 0.0807 -0.3264 -0.1318
000020 d8 2c 5a 30 8b ae fe 2a 87 b4 30 28 40 b2 48 a6
       0.0757 0.136 -0.10223 0.05463 -0.283 0.0327 -0.1953 -0.02454
000030 57 b7 c7 2c 20 2f 29 9c ee 2a 13 2f 8e ad a4 b2
       -0.4587 0.07465 0.1113 -0.004063 0.05414 0.11053 -0.0868 -0.2075
000040 9e 29 99 b4 bc 27 94 34 3c b1 6d ae 13 2c 72 b0
       0.04388 -0.2874 0.03021 0.2861 -0.1636 -0.1004 0.06366 -0.1389
000050 3b b4 4f 2f 21 32 40 33 05 2f 0f 2d a9 32 5f 26
       -0.2644 0.1142 0.1915 0.2266 0.1097 0.07904 0.2081 0.02489
000060 05 b5 d5 2f e0 a1 2d a6 05 32 4f b5 86 33 45 35
       -0.3137 0.1224 -0.011475 -0.02412 0.1881 -0.3318 0.2351 0.3293
000070 08 b5 07 33 61 ad 11 2e e9 ac 82 ae 71 b1 32 2b
       -0.3145 0.2196 -0.08405 0.0948 -0.0767 -0.1017 -0.17 0.0562
000080 d2 30 33 b3 74 aa 41 2c 93 b5 cd 31 aa 2c 53 a9
       0.1506 -0.225 -0.0504 0.06647 -0.3484 0.1813 0.0729 -0.0416
000090 a3 b6 48 30 bd 2f de 35 7a 32 eb 30 83 b0 79 b4
       -0.4148 0.1338 0.1209 0.3667 0.2024 0.1537 -0.141 -0.2795
0000a0 98 ad fa 30 e8 b1 99 b2 39 a5 ba b2 58 29 94 b1
       -0.0874 0.1555 -0.1846 -0.2062 -0.0204 -0.2102 0.04175 -0.1743
0000b0 47 31 8b 28 d0 b0 6d af 4b ae a0 2f 7b b0 b3 b2
       0.1649 0.0355 -0.1504 -0.116 -0.0983 0.11914 -0.14 -0.2094
0000c0 63 b5 b6 b3 69 2b a7 2d 88 b1 a8 b7 f3 29 e8 2c
       -0.3367 -0.241 0.0579 0.0883 -0.1729 -0.4785 0.04648 0.07666
0000d0 5b a8 d8 b5 e2 b2 47 b8 67 32 12 2e d3 b6 6b b0
       -0.03403 -0.3652 -0.2151 -0.5347 0.2001 0.09485 -0.4265 -0.1381
0000e0 38 b6 55 b4 ed 13 57 30 99 2e 58 36 cb b5 5a 33
       -0.3887 -0.2708 0.0009675 0.1356 0.1031 0.3965 -0.362 0.2297
0000f0 db 32 c7 2b 0c aa 3b b5 f3 a7 1b 25 81 2e 85 ac
       0.2142 0.06076 -0.04724 -0.327 -0.03105 0.01994 0.1016 -0.0706
000100 3a a7 fb b0 1d b2 e7 b5 24 33 8f b4 b1 18 a0 b2
       -0.02823 -0.1556 -0.191 -0.369 0.2231 -0.285 0.00229 -0.207
000110 fe 29 0f b4 26 34 f1 1e 14 34 c1 31 64 31 7e b2
       0.0468 -0.2537 0.2593 0.00678 0.255 0.1798 0.1685 -0.2029
000120 da ac 51 b2 74 b4 3d b5 bc 33 96 b5 0d 2c e8 b0
       -0.0758 -0.1974 -0.2783 -0.3274 0.2417 -0.349 0.0633 -0.1533
000130 fe 2d e5 b4 58 b6 3a 36 de b5 fd 32 5e ac e5 b1
       0.0936 -0.306 -0.3965 0.3892 -0.3667 0.2184 -0.06824 -0.1842
000140 79 b1 24 2a 31 33 df 32 bf b1 ec 22 df b0 ca 34
       -0.171 0.04797 0.2247 0.2147 -0.1796 0.01352 -0.1522 0.2993
000150 f5 35 79 2d 54 b5 4a aa cd 30 60 28 f9 1a 4a 2e
       0.3723 0.0855 -0.333 -0.04913 0.15 0.03418 0.003405 0.09827
000160 5b 30 3c 29 12 99 59 b5 ca b4 32 b6 17 af c1 a9
       0.1361 0.0409 -0.002476 -0.3342 -0.2993 -0.3872 -0.1108 -0.04495
000170 09 31 52 2e 22 9d 43 24 f1 34 72 b6 90 a0 64 b6
       0.1573 0.09875 -0.005013 0.01665 0.3088 -0.4028 -0.00891 -0.3994
000180 c7 ac d0 b2 20 34 a2 2e 18 33 de 35 f1 36 df 32
       -0.07465 -0.2129 0.2578 0.10364 0.2217 0.3667 0.4338 0.2147
000190 37 32 a6 b4 22 33 31 32 5b 30 08 a5 0a 2d 00 af
       0.1942 -0.2905 0.2229 0.1935 0.1361 -0.01965 0.07874 -0.1094
0001a0 3f b7 14 b5 be 32 86 b3 55 af 81 30 56 31 eb 2f
       -0.453 -0.3174 0.2107 -0.2351 -0.11456 0.1407 0.1667 0.1237
0001b0 b7 31 2c b5 66 a4 84 31 b9 2e ca 30 74 31 d0 b4
       0.1786 -0.3232 -0.01718 0.1724 0.10504 0.1497 0.1704 -0.3008
0001c0 ac 2f 21 34 bc b3 d6 32 5a a8 42 35 29 b2 1c 30
       0.1199 0.258 -0.2417 0.2136 -0.034 0.3286 -0.1925 0.1284
0001d0 80 2f b0 2e 16 2e ac b4 f0 31 03 31 f9 32 49 b7
       0.1172 0.1045 0.0951 -0.292 0.1855 0.1566 0.2179 -0.4553
0001e0 56 b5 c2 b4 84 37 e0 ae 5e 33 ca 31 9f 30 80 1f
       -0.3335 -0.2974 0.4697 -0.1074 0.2302 0.1809 0.1444 0.007324
0001f0 b8 b6 2d 29 a9 a8 9a 2f b6 a8 b9 2f ac 35 90 2e
       -0.42 0.04044 -0.0364 0.1188 -0.0368 0.12067 0.3545 0.10254
