assets/mymodel.tflite (tflite, 339648 bytes, 10 tensors)

dense_1/bias f2 [10]
0	0xa6b2	-0.02615
1	0x22de	0.01341
2	0x18aa	0.002277
3	0x2270	0.01257
4	0x2023	0.00808
5	0xa3f7	-0.01556
6	0x9ff4	-0.007767
7	0x1eb1	0.006535
8	0xa027	-0.00811
9	0x21e1	0.01148

dense/bias f2 [64]
0	0x1e7b	0.00633
1	0x2432	0.01639
2	0x1ee6	0.006737
3	0x1c94	0.00447
4	0x1c57	0.00424
5	0x1d04	0.004898
6	0x222b	0.01205
7	0x246f	0.01732
8	0x236d	0.0145
9	0x910e	-0.000617
10	0x1fd9	0.007664
11	0x2517	0.01988
12	0x1bc7	0.003798
13	0x1ea9	0.006504
14	0x208f	0.0089
15	0x1fba	0.007545
16	0x20b5	0.00919
17	0x190f	0.00247
18	0x22b1	0.01307
19	0x22b7	0.013115
20	0x26b8	0.02625
21	0x20bb	0.00924
22	0x2176	0.010666
23	0x1f92	0.007393
24	0x21c8	0.01129
25	0x0d48	0.0003223
26	0x2467	0.0172
27	0x1839	0.002062
28	0x24a1	0.01808
29	0x23c4	0.01517
30	0x249d	0.01802
31	0x229c	0.01291
32	0x1c7e	0.004387
33	0x2329	0.013985
34	0x2177	0.01067
35	0x1b37	0.003523
36	0x20f1	0.00965
37	0x2356	0.01433
38	0x16d3	0.001666
39	0x8d21	-0.000313
40	0x21f9	0.011665
41	0x1850	0.002106
42	0x1ea3	0.00648
43	0x1c58	0.004242
44	0x1a42	0.003056
45	0x227c	0.012665
46	0x998c	-0.002708
47	0x9097	-0.0005603
48	0x1c03	0.003918
49	0x1735	0.00176
50	0x221d	0.01194
51	0x19c5	0.002817
52	0x9103	-0.000612
53	0x1a89	0.003191
54	0x1643	0.001529
55	0x250b	0.0197
56	0x1c72	0.00434
57	0x1e9c	0.006454
58	0x2025	0.008095
59	0x2325	0.013954
60	0x8f7e	-0.0004573
61	0x20ea	0.0096
62	0x1e49	0.006138
63	0x1cd1	0.004704

model/tf.nn.relu/Relu;model/batch_normalization/FusedBatchNormV3;conv2d/bias;model/conv2d/BiasAdd;model/conv2d/Conv2D f2 [32]
0	0x34a1	0.2893
1	0x3334	0.2251
2	0x2f7c	0.11694
3	0x35f9	0.3733
4	0xa922	-0.0401
5	0x2e5f	0.09955
6	0x3739	0.4514
7	0x3505	0.3137
8	0xb678	-0.4043
9	0x31b5	0.1783
10	0x335e	0.2302
11	0x34a7	0.2908
12	0x3111	0.1583
13	0x26bb	0.02629
14	0xab0d	-0.05508
15	0x1d4d	0.005177
16	0xb3c5	-0.2428
17	0x9fec	-0.007736
18	0x315c	0.1675
19	0x9efb	-0.006817
20	0xaa97	-0.05148
21	0x30ca	0.1497
22	0x34d4	0.3018
23	0x29c5	0.04507
24	0x3002	0.1252
25	0x31af	0.1776
26	0xae0a	-0.09436
27	0x2d91	0.087
28	0x27f0	0.031
29	0x3337	0.2255
30	0xb087	-0.1415
31	0x3181	0.172

model/tf.nn.relu_1/Relu;model/batch_normalization_1/FusedBatchNormV3;conv2d_1/bias;model/conv2d_1/BiasAdd;model/conv2d_1/Conv2D f2 [64]
0	0x3991	0.696
1	0x34d8	0.3027
2	0x3862	0.548
3	0x380a	0.505
4	0x3628	0.3848
5	0x34f9	0.3108
6	0x38bf	0.5933
7	0x3901	0.6255
8	0x39a0	0.703
9	0x29c1	0.04495
10	0x3ac1	0.844
11	0x365c	0.3975
12	0x3888	0.5664
13	0x3956	0.667
14	0x3a41	0.7817
15	0x3508	0.3145
16	0xb455	-0.2708
17	0x3989	0.692
18	0x396f	0.679
19	0x3993	0.697
20	0x3173	0.1703
21	0x2e6e	0.10046
22	0x3861	0.5474
23	0x3a20	0.7656
24	0x378f	0.4724
25	0x38af	0.5854
26	0x39bf	0.7183
27	0x3113	0.1586
28	0x3aed	0.8657
29	0x38ef	0.6167
30	0x3a23	0.767
31	0x361e	0.3823
32	0x35f4	0.372
33	0x3958	0.668
34	0x3708	0.4395
35	0x38f8	0.621
36	0x3a52	0.79
37	0x341e	0.2573
38	0x369e	0.4136
39	0x3884	0.5645
40	0x3762	0.4614
41	0x3852	0.54
42	0x389d	0.5767
43	0x3854	0.541
44	0x37d1	0.4885
45	0x34bc	0.296
46	0x3847	0.5347
47	0x390c	0.631
48	0x391d	0.639
49	0x3b8d	0.944
50	0x36ef	0.4333
51	0xb33a	-0.2258
52	0x39c4	0.7207
53	0x34ee	0.308
54	0x38b0	0.586
55	0x391d	0.639
56	0x3972	0.6807
57	0x3a30	0.7734
58	0x36ff	0.4373
59	0x3772	0.4653
60	0x39b3	0.7124
61	0x39f0	0.742
62	0x3944	0.658
63	0x3ad9	0.856

model/tf.nn.relu_2/Relu;model/batch_normalization_2/FusedBatchNormV3;conv2d_2/bias;model/conv2d_2/BiasAdd;model/conv2d_2/Conv2D f2 [128]
0	0x3d95	1.3955
1	0x3dc4	1.441
2	0x3880	0.5625
3	0xb5ad	-0.3547
4	0x3572	0.3403
5	0xb8cf	-0.601
6	0x3661	0.3987
7	0x3bdc	0.9824
8	0x3f72	1.861
9	0x37d1	0.4885
10	0x3d28	1.289
11	0x3b7a	0.9346
12	0x341a	0.2563
13	0xa997	-0.04367
14	0x3b11	0.8833
15	0x3a63	0.7983
16	0xba8e	-0.8193
17	0xbcdb	-1.214
18	0xb0cd	-0.15
19	0x40f9	2.486
20	0x3bc2	0.9697
21	0xb68d	-0.4094
22	0x387a	0.5596
23	0x33d2	0.2444
24	0x3795	0.4739
25	0x39fe	0.749
26	0x3637	0.3884
27	0xb68a	-0.4087
28	0xaad0	-0.05322
29	0xb3c7	-0.243
30	0xb90a	-0.63
31	0x3ee8	1.727
32	0x3cdc	1.215
33	0xb165	-0.1686
34	0xada8	-0.0884
35	0x3c10	1.016
36	0x3002	0.1252
37	0x3c86	1.131
38	0x3cf2	1.236
39	0x3874	0.5566
40	0xb77e	-0.4683
41	0xb0bc	-0.148
42	0x31b6	0.1785
43	0x3cbc	1.184
44	0x34f9	0.3108
45	0x31ed	0.1852
46	0x34d7	0.3025
47	0x40b4	2.352
48	0x3ac4	0.8457
49	0x36dc	0.4287
50	0x39e5	0.737
51	0x3cb3	1.175
52	0x3de9	1.478
53	0x301d	0.1285
54	0x3a4b	0.7866
55	0x33cd	0.2438
56	0xb99b	-0.7007
57	0x3c45	1.067
58	0xadea	-0.0924
59	0x30ca	0.1497
60	0x38ac	0.584
61	0x34ed	0.3079
62	0xbc06	-1.006
63	0x3e78	1.617
64	0x3890	0.5703
65	0xb764	-0.462
66	0x3b9e	0.952
67	0xb752	-0.4575
68	0xb061	-0.1368
69	0x3887	0.566
70	0xb6c5	-0.423
71	0x3dcf	1.452
72	0x3e91	1.642
73	0x3cb0	1.172
74	0xb5cc	-0.3623
75	0x3574	0.3408
76	0x34ce	0.3003
77	0x3d34	1.301
78	0xbce7	-1.226
79	0x3866	0.55
80	0xbb14	-0.885
81	0xb051	-0.1349
82	0x3e3e	1.561
83	0x3c2a	1.041
84	0x33e9	0.2472
85	0x3b57	0.9175
86	0x386c	0.5527
87	0x367b	0.405
88	0x3b5a	0.919
89	0xbbb2	-0.962
90	0x3446	0.267
91	0x3960	0.672
92	0x39fc	0.748
93	0x368a	0.4087
94	0x3490	0.2852
95	0x3993	0.697
96	0x3357	0.2294
97	0x3c2f	1.046
98	0x4056	2.168
99	0xbc1e	-1.029
100	0x389e	0.577
101	0xbc67	-1.101
102	0x2e91	0.1026
103	0xb8bd	-0.5923
104	0x317b	0.1713
105	0x2c49	0.06696
106	0x3a5f	0.7964
107	0x310f	0.1581
108	0xb96e	-0.6787
109	0x3c2d	1.044
110	0x3083	0.141
111	0xaba5	-0.05972
112	0x399e	0.702
113	0x39e9	0.739
114	0xbac4	-0.8457
115	0x2fe3	0.1232
116	0xb56b	-0.3386
117	0x3bd8	0.9805
118	0x3dff	1.499
119	0x38fe	0.624
120	0x3057	0.1356
121	0xbe88	-1.633
122	0x3b0e	0.882
123	0x40d9	2.424
124	0xac24	-0.0647
125	0xb8b0	-0.586
126	0xb482	-0.2817
127	0xb1a7	-0.1766

model/dense/MatMul f2 [64, 1152]
0	0x2d5a	0.0836
1	0x25d9	0.02284
2	0x2c57	0.0678
3	0x272f	0.02806
4	0x29db	0.04575
5	0x2801	0.03128
6	0x25df	0.02293
7	0xa9bf	-0.0449
8	0x1c98	0.004486
9	0x2d49	0.0826
10	0x26f5	0.02718
11	0xa783	-0.02934
12	0x2d75	0.08527
13	0xa94f	-0.04147
14	0x2d54	0.08325
15	0xa701	-0.02736
16	0x2bca	0.06085
17	0x2980	0.04297
18	0xa58b	-0.02165
19	0xadc1	-0.0899
20	0x283a	0.03302
21	0x29ed	0.0463
22	0xad2b	-0.08075
23	0x2b29	0.05594
24	0xa829	-0.0325
25	0xabb9	-0.06033
26	0x2cc3	0.0744
27	0xa920	-0.04004
28	0xa51e	-0.01999
29	0xaad0	-0.05322
30	0x297d	0.04288
31	0xae25	-0.096
32	0x2888	0.0354
33	0x1e46	0.006126
34	0x2ea9	0.10406
35	0xaa8a	-0.0511
36	0xa540	-0.02051
37	0xa8a4	-0.03625
38	0xa22c	-0.012054
39	0x2125	0.01005
40	0x2cbd	0.07404
41	0xa242	-0.01222
42	0xa850	-0.0337
43	0xa360	-0.014404
44	0xaa84	-0.0509
45	0x20fd	0.00974
46	0xa36a	-0.01448
47	0x28a0	0.03613
48	0xab53	-0.05722
49	0x26e9	0.027
50	0x2b9c	0.05945
51	0x287a	0.03497
52	0xae97	-0.10297
53	0xa066	-0.00859
54	0xa9ba	-0.04474
55	0x9645	-0.001531
56	0x2820	0.03223
57	0xa461	-0.0171
58	0xaa4b	-0.04916
59	0x28c0	0.0371
60	0xae4f	-0.0986
61	0x298a	0.04327
62	0x8ebe	-0.0004115
63	0x9ee6	-0.006737
64	0xa5d3	-0.02275
65	0xab4f	-0.0571
66	0x2cd0	0.0752
67	0x24d0	0.0188
68	0x2d50	0.083
69	0x8cbb	-0.0002887
70	0x253d	0.02046
71	0x1037	0.0005145
72	0x1a1b	0.002981
73	0x2742	0.02835
74	0xace0	-0.0762
75	0x2de3	0.092
76	0xaafa	-0.0545
77	0xae32	-0.0968
78	0xacac	-0.073
79	0x2d54	0.08325
80	0x2d18	0.0796
81	0x2a28	0.0481
82	0x27e9	0.0309
83	0xa5a7	-0.02208
84	0x2215	0.01188
85	0x29ac	0.0443
86	0xa5fa	-0.02335
87	0xab1a	-0.05548
88	0xada9	-0.08844
89	0x2234	0.012115
90	0x273e	0.02829
91	0x22ba	0.01314
92	0xa763	-0.02885
93	0x15f3	0.001452
94	0xab83	-0.0587
95	0x2ca8	0.07275
96	0xab7c	-0.05847
97	0x300b	0.1263
98	0x28ad	0.03653
99	0x297a	0.0428
100	0xa4c5	-0.01863
101	0x2422	0.01614
102	0x9ddb	-0.00572
103	0xa383	-0.01467
104	0xac83	-0.0705
105	0xa4f3	-0.01933
106	0xac89	-0.07086
107	0xa404	-0.01569
108	0xa236	-0.01213
109	0xad96	-0.0873
110	0xae7b	-0.10126
111	0xa469	-0.01723
112	0xacc9	-0.07477
113	0x2746	0.02841
114	0xacf7	-0.0776
115	0x288c	0.03552
116	0xa5f6	-0.02328
117	0x964d	-0.001538
118	0x2d63	0.08417
119	0xa7f1	-0.03102
120	0x2938	0.04077
121	0xa8bd	-0.03702
122	0xac22	-0.0646
123	0x1e20	0.00598
124	0x26bf	0.02635
125	0xac80	-0.0703
126	0xaa95	-0.05142
127	0x2047	0.008354
128	0x9e54	-0.00618
129	0x264b	0.02458
130	0x2b25	0.05582
131	0xa322	-0.01393
132	0xa5be	-0.02243
133	0x2bd4	0.06116
134	0x1b9a	0.003712
135	0xa51c	-0.01996
136	0x2d09	0.0787
137	0xa87f	-0.03513
138	0x2607	0.02354
139	0x2aa5	0.0519
140	0x1b8b	0.003683
141	0xa1dc	-0.011444
142	0x2bf6	0.0622
143	0x1d31	0.00507
144	0xa474	-0.0174
145	0xab06	-0.05487
146	0x9c95	-0.004475
147	0xa89f	-0.0361
148	0xa304	-0.0137
149	0x116f	0.0006633
150	0x2718	0.02771
151	0x256f	0.02122
152	0xaea4	-0.10376
153	0xa525	-0.0201
154	0x2c68	0.06885
155	0xac4c	-0.06714
156	0x2ca7	0.0727
157	0xac82	-0.07043
158	0x28de	0.03802
159	0xa148	-0.010315
160	0x26bd	0.02632
161	0x299d	0.04385
162	0x2f84	0.11743
163	0xa5bf	-0.02245
164	0x2867	0.0344
165	0x2448	0.01672
166	0x2af6	0.05438
167	0x2435	0.01643
168	0xa587	-0.02159
169	0xa815	-0.0319
170	0x2c2a	0.06506
171	0xab96	-0.05927
172	0xa78b	-0.02946
173	0x2afe	0.05463
174	0xa8d0	-0.0376
175	0xac71	-0.0694
176	0x1c3a	0.004128
177	0xa39c	-0.01486
178	0xad15	-0.0794
179	0x2101	0.00977
180	0x99bd	-0.002802
181	0x25f5	0.02327
182	0xa3e5	-0.01542
183	0x25f8	0.02332
184	0x2520	0.02002
185	0x2156	0.01042
186	0xa426	-0.0162
187	0x264c	0.0246
188	0x26be	0.02634
189	0x2d13	0.0793
190	0x2d00	0.0781
191	0xaabf	-0.0527
192	0xad08	-0.0786
193	0xa641	-0.02443
194	0x28de	0.03802
195	0xa55e	-0.02097
196	0x2abe	0.05267
197	0x2df5	0.0931
198	0x2b34	0.05627
199	0xa9ad	-0.04434
200	0xa316	-0.01384
201	0xab5b	-0.05746
202	0x21bb	0.01119
203	0x2420	0.01611
204	0x1d1d	0.004993
205	0xab6c	-0.05798
206	0x2d1e	0.07996
207	0x258d	0.02168
208	0xab69	-0.0579
209	0x2bc8	0.0608
210	0x25d1	0.02272
211	0xaa2d	-0.04825
212	0x21d6	0.0114
213	0x2c85	0.0706
214	0x2bd3	0.06113
215	0xac04	-0.06274
216	0x9e00	-0.00586
217	0xa988	-0.0432
218	0x26ac	0.02606
219	0xadfe	-0.0936
220	0xa6a3	-0.02592
221	0xa5e2	-0.02298
222	0xa661	-0.02492
223	0xa940	-0.04102
224	0x2488	0.0177
225	0x223d	0.012184
226	0x293c	0.0409
227	0x0f3a	0.000441
228	0xa050	-0.00842
229	0x29ad	0.04434
230	0xa29c	-0.01291
231	0x9731	-0.001756
232	0xae97	-0.10297
233	0x27e0	0.03076
234	0x2845	0.03336
235	0xa092	-0.00893
236	0x28cc	0.03748
237	0x28c6	0.0373
238	0x2522	0.02005
239	0x2c10	0.0635
240	0xa77d	-0.02925
241	0xa961	-0.04202
242	0x2972	0.04254
243	0xa80e	-0.03168
244	0xa865	-0.03433
245	0x29f9	0.04666
246	0x2450	0.01685
247	0xa932	-0.0406
248	0x2c6a	0.069
249	0x9d4a	-0.005165
250	0x2c4e	0.06726
251	0xa7dd	-0.03072
252	0x2681	0.0254
253	0xacda	-0.0758
254	0x2599	0.02187
255	0x2087	0.00884

model/dense_1/MatMul f2 [10, 64]
0	0xb006	-0.1257
1	0xb07b	-0.14
2	0xb55e	-0.3354
3	0x29f3	0.04648
4	0x2882	0.03522
5	0x34d4	0.3018
6	0x30f9	0.1554
7	0xa8a2	-0.0362
8	0xb53a	-0.3267
9	0xb56c	-0.3389
10	0xaf66	-0.1156
11	0xb1b1	-0.1779
12	0xb28c	-0.2046
13	0x30c1	0.1486
14	0x345c	0.2725
15	0xb571	-0.34
16	0x31f0	0.1855
17	0xa513	-0.01982
18	0xb236	-0.1941
19	0xaf6f	-0.11615
20	0xb631	-0.387
21	0x31c0	0.1797
22	0x1ccc	0.004684
23	0xb10b	-0.1576
24	0xb2f6	-0.2175
25	0x358f	0.3474
26	0x2968	0.04224
27	0x2eec	0.10815
28	0xa4fa	-0.01944
29	0xb466	-0.275
30	0xb1e1	-0.1837
31	0x331e	0.2224
32	0x2e69	0.10016
33	0xb256	-0.198
34	0xacf3	-0.07733
35	0x3176	0.1707
36	0xb684	-0.4072
37	0x2ff1	0.1241
38	0x3368	0.2314
39	0x3185	0.1725
40	0x32fc	0.2183
41	0x33ff	0.2499
42	0x343c	0.2646
43	0x31c4	0.1802
44	0x326f	0.201
45	0xb5b3	-0.3562
46	0xb3d6	-0.2449
47	0x3509	0.3147
48	0x339d	0.2379
49	0x2b02	0.05475
50	0x3065	0.1373
51	0x34da	0.3032
52	0x34cf	0.3005
53	0xa9ea	-0.0462
54	0x2f54	0.1145
55	0xb5f8	-0.373
56	0x2ba6	0.05975
57	0xa6e7	-0.02696
58	0x2fcb	0.12177
59	0xb00d	-0.1266
60	0x3376	0.2332
61	0xb55b	-0.3347
62	0x2cfd	0.07794
63	0x3326	0.2234
64	0x32fd	0.2184
65	0xb576	-0.3413
66	0xafd8	-0.12256
67	0x3273	0.2015
68	0xb447	-0.2673
69	0xadba	-0.0895
70	0x2c44	0.06665
71	0xb16d	-0.1696
72	0x3424	0.2588
73	0xb00a	-0.1262
74	0xa853	-0.03378
75	0x3099	0.1437
76	0xb3d2	-0.2444
77	0xb528	-0.3223
78	0xacc8	-0.0747
79	0x2acb	0.05307
80	0xb29b	-0.2064
81	0xb45e	-0.273
82	0xa5c8	-0.02258
83	0xa0b6	-0.0092
84	0x3043	0.1332
85	0xb40a	-0.2524
86	0xb016	-0.1277
87	0xb24f	-0.1971
88	0xac39	-0.066
89	0xb58b	-0.3464
90	0xaf77	-0.11664
91	0xb34b	-0.2279
92	0x34c5	0.298
93	0xac3b	-0.0661
94	0x2f50	0.11426
95	0x31c0	0.1797
96	0x3437	0.2634
97	0xae34	-0.0969
98	0xb5ce	-0.3628
99	0x30af	0.1464
100	0x30bc	0.148
101	0x2e68	0.1001
102	0xb0a6	-0.1453
103	0x3034	0.1313
104	0xb563	-0.3367
105	0x30af	0.1464
106	0xabe4	-0.06165
107	0x3429	0.26
108	0x2c62	0.0685
109	0x34be	0.2964
110	0xa7e8	-0.03088
111	0x3478	0.2793
112	0xaf97	-0.1186
113	0x281b	0.03207
114	0xac78	-0.0698
115	0x2af3	0.0543
116	0xb0d8	-0.1514
117	0xaae0	-0.0537
118	0x30a3	0.1449
119	0xabf4	-0.06213
120	0x3472	0.2778
121	0xaa2e	-0.04828
122	0xb0a3	-0.1449
123	0x2304	0.0137
124	0xb4ac	-0.292
125	0xabd4	-0.06116
126	0xb436	-0.2632
127	0x2604	0.0235
128	0x314f	0.1659
129	0xa8ac	-0.0365
130	0x34d0	0.3008
131	0xb523	-0.321
132	0x2f1c	0.1111
133	0xae40	-0.09766
134	0xb4bb	-0.2957
135	0x3061	0.1368
136	0x33db	0.2455
137	0xad1f	-0.08
138	0xb2cd	-0.2125
139	0xb1f9	-0.1866
140	0x32b5	0.2096
141	0x2822	0.0323
142	0x3232	0.1936
143	0xafa9	-0.1197
144	0xaa07	-0.0471
145	0xb4fe	-0.312
146	0x335c	0.23
147	0x2b79	0.05838
148	0xb43d	-0.265
149	0x2b4e	0.05707
150	0x34d2	0.3013
151	0x30fe	0.156
152	0xb440	-0.2656
153	0xb452	-0.27
154	0xb093	-0.143
155	0x2da0	0.0879
156	0xae20	-0.0957
157	0xa86c	-0.03455
158	0xa793	-0.02959
159	0xb391	-0.2365
160	0x348f	0.285
161	0xb5fc	-0.374
162	0xb3a0	-0.2383
163	0x3441	0.2659
164	0xb2e4	-0.2153
165	0xb27e	-0.2029
166	0xb483	-0.282
167	0xb4bd	-0.2961
168	0x2e05	0.09406
169	0x3263	0.1996
170	0x3141	0.1642
171	0xb2e0	-0.2148
172	0xa423	-0.01616
173	0xacd2	-0.0753
174	0x2681	0.0254
175	0xacff	-0.07806
176	0x2e83	0.10175
177	0xab6f	-0.05807
178	0xa67f	-0.02538
179	0x3476	0.2788
180	0x2b04	0.0548
181	0xb412	-0.2544
182	0x33c4	0.2427
183	0xac97	-0.0717
184	0x2d4b	0.0827
185	0xb38f	-0.2362
186	0x3461	0.2737
187	0x2bd1	0.06107
188	0x343b	0.2644
189	0x32b5	0.2096
190	0x30bc	0.148
191	0x3499	0.2874
192	0xb6c2	-0.4224
193	0xb33f	-0.2264
194	0x3192	0.1741
195	0x2080	0.00879
196	0x34bb	0.2957
197	0x3113	0.1586
198	0x314c	0.1655
199	0x2de0	0.0918
200	0xb03e	-0.1326
201	0xb47f	-0.281
202	0xb3c4	-0.2427
203	0xb00a	-0.1262
204	0x34d7	0.3025
205	0xb544	-0.329
206	0x35ba	0.358
207	0xb1f0	-0.1855
208	0x2d49	0.0826
209	0xb474	-0.2783
210	0x3539	0.3264
211	0x3063	0.1371
212	0x3379	0.2335
213	0x3524	0.3213
214	0x277d	0.02925
215	0xb081	-0.1407
216	0x330a	0.22
217	0xb440	-0.2656
218	0x338a	0.2356
219	0x2b6f	0.05807
220	0xb29f	-0.2069
221	0xac86	-0.0707
222	0x3379	0.2335
223	0xa3be	-0.01512
224	0x32b2	0.2092
225	0xb246	-0.196
226	0x2f35	0.1126
227	0xaddf	-0.09174
228	0xb55d	-0.3352
229	0xacb4	-0.0735
230	0xa879	-0.03494
231	0x2f1c	0.1111
232	0x34a6	0.2905
233	0xb23d	-0.195
234	0x3274	0.2017
235	0xb36b	-0.2318
236	0xa6b0	-0.02612
237	0x2f1c	0.1111
238	0xb3c9	-0.2433
239	0xb5f5	-0.3723
240	0x3389	0.2355
241	0xb0fd	-0.1559
242	0xb101	-0.1564
243	0xb4d8	-0.3027
244	0xa73d	-0.02827
245	0x30b6	0.1472
246	0xb059	-0.1359
247	0x26ea	0.02701
248	0xb43a	-0.2642
249	0x3045	0.1334
250	0x3401	0.2502
251	0x3166	0.1687
252	0xb427	-0.2595
253	0xb402	-0.2505
254	0xa4cb	-0.01872
255	0x31bb	0.1791

model/conv2d/Conv2D f2 [32, 3, 3, 1]
0	0xb23e	-0.1951
1	0x3789	0.471
2	0xc07d	-2.244
3	0x35af	0.3552
4	0xc126	-2.574
5	0x3f7a	1.869
6	0xbf84	-1.879
7	0x401c	2.055
8	0x3836	0.5264
9	0xac36	-0.0658
10	0xc02d	-2.088
11	0xba89	-0.817
12	0xb349	-0.2277
13	0x3ca0	1.156
14	0x3277	0.202
15	0xbeb2	-1.674
16	0x38e3	0.611
17	0x3ebb	1.683
18	0xba5f	-0.7964
19	0x3f7f	1.874
20	0xbd23	-1.284
21	0xbece	-1.701
22	0xc077	-2.232
23	0xbe5e	-1.592
24	0x404f	2.154
25	0x377d	0.468
26	0x410e	2.527
27	0xb65a	-0.397
28	0xb8df	-0.609
29	0x3f01	1.751
30	0xb96c	-0.6777
31	0x38bf	0.5933
32	0xb8aa	-0.583
33	0xbab9	-0.8403
34	0xbc80	-1.125
35	0xb90a	-0.63
36	0x2dd9	0.0914
37	0xb10f	-0.1581
38	0x3e9b	1.651
39	0xbfbb	-1.933
40	0xb963	-0.6733
41	0x3d52	1.33
42	0x2e5b	0.0993
43	0xbd20	-1.281
44	0x3d52	1.33
45	0x3c2c	1.043
46	0xbc59	-1.087
47	0xb930	-0.6484
48	0x3c83	1.128
49	0xbcc0	-1.1875
50	0xbd5f	-1.343
51	0x3b60	0.922
52	0x3c74	1.113
53	0xb84c	-0.537
54	0xb996	-0.698
55	0x2d2e	0.08093
56	0xba93	-0.822
57	0xa155	-0.010414
58	0xac16	-0.06384
59	0xace9	-0.0767
60	0xb776	-0.4663
61	0xb69a	-0.4126
62	0xba83	-0.814
63	0xb981	-0.688
64	0xb4e2	-0.3052
65	0xba60	-0.797
66	0x3b6c	0.9277
67	0xbc55	-1.083
68	0x306e	0.1384
69	0x3843	0.5327
70	0xbab4	-0.838
71	0xb77a	-0.4673
72	0x391c	0.6387
73	0x38a6	0.581
74	0x3881	0.563
75	0xb5ff	-0.3748
76	0x39a4	0.705
77	0x3932	0.6494
78	0x30c2	0.1487
79	0x38f8	0.621
80	0xb9b9	-0.7153
81	0xbc21	-1.032
82	0xb46d	-0.2766
83	0x4014	2.04
84	0xbd75	-1.364
85	0xc133	-2.6
86	0x3c9a	1.15
87	0x3ca2	1.158
88	0x3a46	0.784
89	0xb9cf	-0.726
90	0x3dc2	1.439
91	0xc02e	-2.09
92	0x2eb1	0.10455
93	0x3d88	1.383
94	0xbdd2	-1.455
95	0xb68c	-0.4092
96	0x3964	0.674
97	0xbc76	-1.115
98	0x3443	0.2664
99	0x345f	0.2732
100	0x3d5b	1.339
101	0x3a7b	0.81
102	0xc021	-2.064
103	0x336c	0.2319
104	0xb67e	-0.4058
105	0x2a71	0.05032
106	0xbd6e	-1.357
107	0xb934	-0.6504
108	0x3b7c	0.9355
109	0xc107	-2.514
110	0x3c51	1.079
111	0x4144	2.633
112	0x34cd	0.3
113	0xb852	-0.54
114	0xc015	-2.041
115	0xc17c	-2.742
116	0x4046	2.137
117	0x3f98	1.898
118	0x3cf7	1.241
119	0x3d33	1.3
120	0xbd7e	-1.373
121	0x387f	0.562
122	0xb76b	-0.4636
123	0xbd15	-1.2705
124	0xbf9e	-1.904
125	0x30d1	0.1505
126	0xc042	-2.129
127	0x4046	2.137
128	0x3876	0.5576
129	0xbc5e	-1.092
130	0x39bb	0.7163
131	0xa16b	-0.01058
132	0xbe73	-1.612
133	0x3a00	0.75
134	0x3b24	0.8926
135	0xc0f2	-2.473
136	0x3831	0.524
137	0xbb20	-0.8906
138	0x3a02	0.751
139	0xc07d	-2.244
140	0x3a9c	0.826
141	0x3de7	1.476
142	0x40e0	2.438
143	0xb66a	-0.401
144	0x3831	0.524
145	0x3d5a	1.338
146	0xc0dd	-2.432
147	0x3220	0.1914
148	0x3c29	1.04
149	0xbe51	-1.579
150	0x32d8	0.2139
151	0x3d49	1.321
152	0x3c21	1.032
153	0xbdcf	-1.452
154	0xc085	-2.26
155	0x3a33	0.775
156	0xb700	-0.4375
157	0x3fde	1.967
158	0x3cef	1.233
159	0xb0de	-0.1521
160	0x3d1e	1.279
161	0xb9ba	-0.716
162	0xbcd4	-1.207
163	0xbc01	-1.001
164	0x3f30	1.797
165	0x3e04	1.504
166	0x3d35	1.302
167	0x408a	2.27
168	0xbece	-1.701
169	0xc01f	-2.06
170	0xbf49	-1.821
171	0x3ecc	1.699
172	0xbd3c	-1.309
173	0x3b0c	0.881
174	0x3dbe	1.436
175	0xbf1f	-1.78
176	0xc0c9	-2.393
177	0x3e32	1.549
178	0xbcc0	-1.1875
179	0x3cf3	1.237
180	0xad4f	-0.08295
181	0x3c00	1.0
182	0x3630	0.3867
183	0x3de8	1.477
184	0x3596	0.349
185	0x3d0b	1.261
186	0xb34f	-0.2284
187	0xbef0	-1.734
188	0xbfa8	-1.914
189	0x40a8	2.328
190	0xb482	-0.2817
191	0xba6a	-0.802
192	0x39ea	0.7393
193	0xbb23	-0.892
194	0xbbf2	-0.993
195	0xba79	-0.809
196	0xbf25	-1.786
197	0x3f60	1.844
198	0xbcf7	-1.241
199	0xb90b	-0.6304
200	0xbc38	-1.055
201	0x3baf	0.9604
202	0xbd12	-1.268
203	0x3cbc	1.184
204	0x3ee5	1.724
205	0xbe86	-1.631
206	0x28bc	0.037
207	0xb946	-0.659
208	0xc1ac	-2.836
209	0xb7cd	-0.4875
210	0x413f	2.623
211	0x3216	0.1902
212	0x42df	3.436
213	0xbfb1	-1.923
214	0x4018	2.047
215	0xc1e0	-2.938
216	0x3d50	1.328
217	0x39ca	0.7236
218	0xbd86	-1.381
219	0x3e22	1.533
220	0xbaa1	-0.8286
221	0x3491	0.2854
222	0xb4ab	-0.2917
223	0x2e62	0.09973
224	0xc086	-2.262
225	0xaa36	-0.04852
226	0xbd7c	-1.371
227	0x41c1	2.877
228	0xad06	-0.0785
229	0xc308	-3.516
230	0xb34c	-0.228
231	0x407d	2.244
232	0x3c71	1.11
233	0xbf98	-1.898
234	0xbca3	-1.159
235	0x3742	0.4536
236	0xc20b	-3.021
237	0x3d28	1.289
238	0x3b09	0.8794
239	0x34be	0.2964
240	0x3728	0.4473
241	0x3281	0.2032
242	0x3db4	1.426
243	0xb828	-0.5195
244	0x3970	0.6797
245	0xb96e	-0.6787
246	0xc073	-2.225
247	0xba5e	-0.796
248	0x3eee	1.732
249	0xb5fe	-0.3745
250	0x3a8e	0.8193
251	0x3c45	1.067
252	0x3d86	1.381
253	0x3907	0.6284
254	0xbc1f	-1.03
255	0x2442	0.01663

model/conv2d_1/Conv2D f2 [64, 3, 3, 32]
0	0xa95c	-0.04187
1	0x2133	0.010155
2	0x21b7	0.01116
3	0x278a	0.02945
4	0xa3a4	-0.01492
5	0x2c40	0.0664
6	0x277f	0.02928
7	0x2b20	0.05566
8	0xae5c	-0.09937
9	0xa68d	-0.02559
10	0x29c0	0.04492
11	0x28bd	0.03702
12	0xa98b	-0.0433
13	0xaf67	-0.11566
14	0xa495	-0.0179
15	0x2c1f	0.0644
16	0x2ae8	0.05396
17	0xa018	-0.007996
18	0xa81c	-0.0321
19	0xad58	-0.0835
20	0x28b5	0.03677
21	0x26ea	0.02701
22	0xa99e	-0.04388
23	0xac08	-0.063
24	0xae0c	-0.0945
25	0xa8ad	-0.03653
26	0xacb9	-0.0738
27	0x2bd6	0.06122
28	0xa8a7	-0.03635
29	0xae68	-0.1001
30	0x2ce8	0.07666
31	0x2c01	0.06256
32	0xaaa6	-0.05194
33	0xa6c0	-0.02637
34	0xafb5	-0.1204
35	0xad04	-0.07837
36	0xa728	-0.02795
37	0xa4f0	-0.01929
38	0x2d32	0.0812
39	0x21d4	0.01138
40	0xa1bc	-0.0112
41	0xa512	-0.0198
42	0x2f94	0.1184
43	0xadfd	-0.09357
44	0x9d0c	-0.00493
45	0xb174	-0.1704
46	0xaa7f	-0.05075
47	0x2060	0.008545
48	0x2cf7	0.0776
49	0x2e32	0.0968
50	0x1f7c	0.00731
51	0x2b58	0.05737
52	0x2464	0.01715
53	0xa808	-0.0315
54	0xa80b	-0.0316
55	0xac48	-0.0669
56	0x2e29	0.09625
57	0xa854	-0.0338
58	0xab07	-0.0549
59	0xa051	-0.00843
60	0xa2b5	-0.0131
61	0x2135	0.01017
62	0xaa95	-0.05142
63	0x1dd6	0.0057
64	0x1340	0.000885
65	0x2983	0.04306
66	0xac60	-0.06836
67	0x2dae	0.08875
68	0xaf8f	-0.1181
69	0xac8e	-0.07117
70	0x2c75	0.06964
71	0x2e20	0.0957
72	0xa37b	-0.01461
73	0xaa2d	-0.04825
74	0x28ec	0.03845
75	0xaf05	-0.1097
76	0xa88e	-0.03558
77	0xb00d	-0.1266
78	0xaf5b	-0.1149
79	0x1d08	0.004913
80	0x2cd2	0.0753
81	0x2cbe	0.0741
82	0xa61e	-0.0239
83	0x2fa5	0.11945
84	0x2c7d	0.0701
85	0x1b20	0.003479
86	0x2ee8	0.1079
87	0x0576	8.33e-05
88	0x2a51	0.04935
89	0xacc8	-0.0747
90	0x2c5b	0.06805
91	0xaddb	-0.0915
92	0x2c9c	0.072
93	0xaab4	-0.05237
94	0x2ab4	0.05237
95	0xaeba	-0.1051
96	0xaa2a	-0.04816
97	0x2c06	0.06287
98	0xb046	-0.1335
99	0xae51	-0.0987
100	0x25a4	0.02203
101	0xa773	-0.0291
102	0xa41f	-0.0161
103	0xac57	-0.0678
104	0x17c6	0.001898
105	0x3010	0.127
106	0x9f9f	-0.007442
107	0x1f30	0.00702
108	0x9d03	-0.004894
109	0xa704	-0.0274
110	0x2f18	0.11084
111	0xad98	-0.0874
112	0x23b7	0.01507
113	0x1267	0.0007815
114	0x9e4d	-0.006153
115	0xaa36	-0.04852
116	0x2c96	0.07166
117	0xa4b1	-0.01833
118	0x29d9	0.0457
119	0x9830	-0.002045
120	0x2a41	0.04886
121	0xa17f	-0.010735
122	0xa4df	-0.01903
123	0x2ae0	0.0537
124	0x2328	0.01398
125	0x2d2e	0.08093
126	0x29c5	0.04507
127	0xa7bf	-0.03026
128	0xa8c0	-0.0371
129	0xaa76	-0.05048
130	0x2cb0	0.07324
131	0x2f68	0.1157
132	0xacfc	-0.0779
133	0x2eff	0.1093
134	0xa752	-0.0286
135	0xad43	-0.0822
136	0xa8ab	-0.03647
137	0x286b	0.03452
138	0x26bf	0.02635
139	0xacca	-0.0748
140	0x9b61	-0.003603
141	0xab21	-0.0557
142	0x2e54	0.0989
143	0xaf2e	-0.1122
144	0x2f5a	0.11487
145	0xaa44	-0.04895
146	0x2504	0.01959
147	0x2c4c	0.06714
148	0x2d7c	0.0857
149	0xaa78	-0.05054
150	0x29ff	0.04684
151	0xa51a	-0.01993
152	0xae99	-0.1031
153	0x258b	0.02165
154	0xa980	-0.04297
155	0xa408	-0.01575
156	0xaf11	-0.1104
157	0xa34e	-0.01427
158	0x2067	0.0086
159	0xaa07	-0.0471
160	0x2426	0.0162
161	0x2e14	0.095
162	0x2833	0.0328
163	0xad75	-0.08527
164	0xa835	-0.03287
165	0xa6d1	-0.02663
166	0x2b4e	0.05707
167	0xa6f2	-0.02713
168	0x2ce9	0.0767
169	0x26ef	0.02708
170	0xac0a	-0.0631
171	0xabcc	-0.0609
172	0xac6f	-0.0693
173	0x2d48	0.0825
174	0xaa15	-0.04752
175	0x287d	0.03506
176	0x2a5a	0.04962
177	0x2766	0.0289
178	0x200f	0.00793
179	0x1c4e	0.004204
180	0x2ca0	0.07227
181	0xad22	-0.0802
182	0x2e6b	0.1003
183	0x2800	0.03125
184	0xad98	-0.0874
185	0x21c3	0.01125
186	0x2f5e	0.1151
187	0x259e	0.02194
188	0xafea	-0.12366
189	0xad4b	-0.0827
190	0xab55	-0.05728
191	0x2e3b	0.09735
192	0x2d77	0.0854
193	0x2215	0.01188
194	0xa7ed	-0.03096
195	0x24c3	0.0186
196	0x29e5	0.04605
197	0xad1e	-0.07996
198	0x2e9d	0.10333
199	0x21bb	0.01119
200	0xa988	-0.0432
201	0xad71	-0.085
202	0x205a	0.0085
203	0x2ffe	0.1249
204	0xafc9	-0.12164
205	0xab2f	-0.05612
206	0xac16	-0.06384
207	0x2aca	0.05304
208	0x2d30	0.08105
209	0x2d14	0.07935
210	0x2d03	0.0783
211	0xaf4f	-0.1142
212	0x2c4c	0.06714
213	0x26a0	0.02588
214	0x2ce6	0.07654
215	0x1605	0.00147
216	0xaab2	-0.0523
217	0xaeba	-0.1051
218	0xacdf	-0.0761
219	0xab3d	-0.05655
220	0xaa93	-0.05136
221	0xae87	-0.102
222	0x29c6	0.0451
223	0xa489	-0.01772
224	0x2966	0.04218
225	0xacf9	-0.0777
226	0x2d65	0.0843
227	0xa5b9	-0.02235
228	0x28d9	0.03787
229	0xac34	-0.0657
230	0xac69	-0.0689
231	0xad90	-0.0869
232	0x2d9a	0.0875
233	0x2817	0.03195
234	0xaf7a	-0.1168
235	0xac9f	-0.0722
236	0x9e73	-0.006298
237	0x2fb2	0.12024
238	0x2974	0.0426
239	0x2a13	0.04745
240	0x20c6	0.00932
241	0xa611	-0.0237
242	0xab5e	-0.05756
243	0xaf44	-0.1135
244	0x882a	-0.0001271
245	0xa6e4	-0.02692
246	0x25bf	0.02245
247	0x310c	0.1577
248	0xa9df	-0.04587
249	0xab96	-0.05927
250	0x9cba	-0.004616
251	0xa83b	-0.03305
252	0xb075	-0.1393
253	0xae87	-0.102
254	0xb009	-0.1261
255	0xa562	-0.02103

model/conv2d_2/Conv2D f2 [128, 3, 3, 64]
0	0xa61f	-0.02391
1	0x9a1a	-0.00298
2	0x925a	-0.0007753
3	0x2487	0.01768
4	0xa918	-0.0398
5	0x2a67	0.05002
6	0x2787	0.0294
7	0xac4f	-0.0673
8	0xabeb	-0.06186
9	0xaaee	-0.05414
10	0xae16	-0.0951
11	0x2238	0.012146
12	0x2c43	0.0666
13	0xa036	-0.008224
14	0x2777	0.02916
15	0x28c2	0.03717
16	0xa8db	-0.03793
17	0xa8dc	-0.03796
18	0xa462	-0.01712
19	0x9b45	-0.00355
20	0x252e	0.02023
21	0x2981	0.043
22	0xa87a	-0.03497
23	0x1daf	0.00555
24	0xa457	-0.01695
25	0xa875	-0.03482
26	0xa960	-0.042
27	0x2419	0.016
28	0xa305	-0.01371
29	0xa667	-0.02501
30	0x1cc9	0.004673
31	0xaadd	-0.05362
32	0xa91e	-0.03998
33	0xa6d4	-0.02667
34	0xa61e	-0.0239
35	0x9ec4	-0.006607
36	0x29e8	0.04614
37	0x24fb	0.01945
38	0x291d	0.03995
39	0x2ac4	0.05286
40	0x2851	0.03372
41	0x20cc	0.00937
42	0x2923	0.04013
43	0xad13	-0.0793
44	0xa85e	-0.03412
45	0x2540	0.02051
46	0xa807	-0.03146
47	0xa83d	-0.0331
48	0x0c7d	0.000274
49	0x2974	0.0426
50	0x1ff4	0.007767
51	0xad78	-0.08545
52	0xa565	-0.02107
53	0xa688	-0.02551
54	0xa866	-0.03436
55	0x2bef	0.06198
56	0x26f0	0.0271
57	0xa688	-0.02551
58	0xae0e	-0.0946
59	0xa58b	-0.02165
60	0xac30	-0.0654
61	0xa81a	-0.03204
62	0x200b	0.0079
63	0x1f02	0.006844
64	0x29ae	0.04437
65	0xa1ad	-0.011086
66	0x2c9e	0.07214
67	0xa9f6	-0.04657
68	0x2346	0.014206
69	0xac60	-0.06836
70	0xaa8a	-0.0511
71	0xac9c	-0.072
72	0xa068	-0.008606
73	0x2113	0.00991
74	0xac79	-0.0699
75	0x2c55	0.0677
76	0x235c	0.01437
77	0xaeac	-0.10425
78	0x9428	-0.001015
79	0x9cd1	-0.004704
80	0x1862	0.00214
81	0x2483	0.01762
82	0xa98e	-0.0434
83	0xad4c	-0.08276
84	0x2961	0.04202
85	0xa824	-0.03235
86	0xaaf1	-0.05423
87	0x21aa	0.01106
88	0xa7b0	-0.03003
89	0x2413	0.01591
90	0x1db7	0.00558
91	0x2578	0.02136
92	0x26cd	0.02657
93	0xa37b	-0.01461
94	0x1cbf	0.004635
95	0xa4f0	-0.01929
96	0xa038	-0.00824
97	0x2ca0	0.07227
98	0x2ac6	0.05292
99	0xacac	-0.073
100	0xa6cd	-0.02657
101	0xa83f	-0.03317
102	0x254d	0.0207
103	0x2527	0.02013
104	0x2acb	0.05307
105	0xa11d	-0.00999
106	0x2bc2	0.0606
107	0x2354	0.01431
108	0x0645	9.567e-05
109	0x25b3	0.02226
110	0x292e	0.04047
111	0x2612	0.02371
112	0x17ab	0.001872
113	0xa5c2	-0.02249
114	0x22b2	0.01308
115	0xac97	-0.0717
116	0xa7d2	-0.03055
117	0xa883	-0.03525
118	0x1f44	0.007095
119	0xa48d	-0.01778
120	0xad24	-0.0803
121	0xa236	-0.01213
122	0x0270	3.72e-05
123	0x25cc	0.02264
124	0xa6a9	-0.02602
125	0x247e	0.01755
126	0x2792	0.02957
127	0x24d5	0.01888
128	0x21bf	0.01122
129	0xa6d3	-0.02666
130	0x2b6f	0.05807
131	0x2679	0.02528
132	0x2b09	0.05496
133	0xa0a7	-0.00909
134	0x29d7	0.04562
135	0xa7fd	-0.0312
136	0x28b6	0.0368
137	0xacd1	-0.07526
138	0x21da	0.01143
139	0x28e6	0.03827
140	0x2c23	0.06464
141	0xad99	-0.08746
142	0x1949	0.00258
143	0x2836	0.0329
144	0x1594	0.001362
145	0x2a70	0.0503
146	0xa779	-0.02919
147	0x1b2a	0.003498
148	0x1f4d	0.00713
149	0x2698	0.02576
150	0x2519	0.01991
151	0xa60e	-0.02365
152	0xa403	-0.01567
153	0x2c53	0.06757
154	0x24f2	0.01932
155	0x2682	0.02542
156	0x2371	0.014534
157	0xa652	-0.02469
158	0x9cf0	-0.00482
159	0x243a	0.01651
160	0x2586	0.02158
161	0x2be5	0.06168
162	0x2a8c	0.05115
163	0xa706	-0.02744
164	0x9853	-0.002111
165	0x2731	0.02809
166	0xaa0f	-0.04733
167	0xa2a7	-0.01299
168	0x2bc1	0.06058
169	0xaa6d	-0.0502
170	0x926f	-0.0007854
171	0x1d47	0.005154
172	0xa865	-0.03433
173	0x9fa6	-0.00747
174	0xa55c	-0.02094
175	0x1f48	0.00711
176	0xa6ca	-0.02652
177	0x222c	0.012054
178	0x1d1f	0.005
179	0x2a3b	0.04868
180	0x2367	0.01446
181	0x2281	0.0127
182	0x98a8	-0.002274
183	0xaac4	-0.05286
184	0xa9cd	-0.04532
185	0xa9be	-0.04486
186	0xaa19	-0.04764
187	0xa8bc	-0.037
188	0xa426	-0.0162
189	0xabe9	-0.0618
190	0x1710	0.001724
191	0x29cb	0.04526
192	0x9f7e	-0.007317
193	0x20eb	0.009605
194	0x27ec	0.03094
195	0xa81a	-0.03204
196	0xa5de	-0.02292
197	0x215b	0.01046
198	0x1d5a	0.005226
199	0x2afc	0.05457
200	0x2434	0.01642
201	0x2129	0.01008
202	0xa905	-0.0392
203	0xa3dd	-0.01536
204	0x94cc	-0.001171
205	0xaa9b	-0.0516
206	0x279a	0.0297
207	0x2723	0.02788
208	0x1f72	0.00727
209	0xa527	-0.02013
210	0x29e3	0.046
211	0xa67a	-0.0253
212	0x217d	0.01072
213	0x21ab	0.01107
214	0x2b02	0.05475
215	0xa797	-0.02965
216	0xaa27	-0.04807
217	0x2a79	0.05057
218	0xa88c	-0.03552
219	0xaa4d	-0.04922
220	0x22be	0.01317
221	0x286b	0.03452
222	0xac61	-0.0684
223	0x20db	0.00948
224	0x2c0f	0.0634
225	0x21e3	0.0115
226	0xa935	-0.04068
227	0x2978	0.04272
228	0xa87a	-0.03497
229	0x9d23	-0.005016
230	0x9e92	-0.006416
231	0xacba	-0.07385
232	0xa3a8	-0.01495
233	0x1c11	0.00397
234	0x2882	0.03522
235	0xa14b	-0.01034
236	0xa954	-0.04163
237	0xa81d	-0.03214
238	0x28bf	0.03708
239	0x2a5a	0.04962
240	0x2a41	0.04886
241	0x9d6e	-0.005302
242	0xada1	-0.08795
243	0xa902	-0.03912
244	0x20e5	0.00956
245	0x2996	0.04364
246	0xadb8	-0.08936
247	0xa588	-0.0216
248	0xa699	-0.02577
249	0xa5dc	-0.02289
250	0xa985	-0.04312
251	0xa537	-0.02037
252	0xa9b5	-0.0446
253	0x212a	0.010086
254	0x24d8	0.01892
255	0xa86b	-0.03452
